…
  "g_ema_rampup": "N/A",
  "apply_pl_reg": false,
  "pl_weight": "N/A",
  "d_architecture": "N/A",
  "d_epilogue_mbstd_group_size": "N/A"
}
[INFO] 2022-11-12 06:15:37 > Load gpm train dataset.
[INFO] 2022-11-12 06:15:37 > Train dataset size: 1750
[INFO] 2022-11-12 06:15:37 > Load gpm train dataset.
[INFO] 2022-11-12 06:15:37 > Eval dataset size: 1750
[INFO] 2022-11-12 06:15:37 > Build a Generative Adversarial Network.
[INFO] 2022-11-12 06:15:37 > Modules are located on './src/models.deep_conv'.
[INFO] 2022-11-12 06:15:40 > Number of parameters: 2771971
[INFO] 2022-11-12 06:15:40 > Generator(
  (linear0): Linear(in_features=1, out_features=8192, bias=True)
  (blocks): ModuleList(
    (0): ModuleList(
      (0): GenBlock(
        (deconv0): ConvTranspose2d(512, 256, kernel_size=(4, 4), stride=(2, 2), padding=(1, 1))
        (bn0): BatchNorm2d(256, eps=0.0001, momentum=0.1, affine=True, track_running_stats=True)
        (activation): ReLU(inplace=True)
      )
    )
    (1): ModuleList(
      (0): GenBlock(
        (deconv0): ConvTranspose2d(256, 128, kernel_size=(4, 4), stride=(2, 2), padding=(1, 1))
        (bn0): BatchNorm2d(128, eps=0.0001, momentum=0.1, affine=True, track_running_stats=True)
        (activation): ReLU(inplace=True)
      )
    )
    (2): ModuleList(
      (0): GenBlock(
        (deconv0): ConvTranspose2d(128, 64, kernel_size=(4, 4), stride=(2, 2), padding=(1, 1))
        (bn0): BatchNorm2d(64, eps=0.0001, momentum=0.1, affine=True, track_running_stats=True)
        (activation): ReLU(inplace=True)
      )
    )
  )
  (conv4): Conv2d(64, 3, kernel_size=(3, 3), stride=(1, 1), padding=(1, 1))
  (tanh): Tanh()
)
[INFO] 2022-11-12 06:15:40 > Number of parameters: 2931009
[INFO] 2022-11-12 06:15:40 > Discriminator(
  (blocks): ModuleList(
    (0): ModuleList(
      (0): DiscBlock(
        (conv0): Conv2d(3, 64, kernel_size=(3, 3), stride=(1, 1), padding=(1, 1))
        (conv1): Conv2d(64, 64, kernel_size=(4, 4), stride=(2, 2), padding=(1, 1))
        (bn0): BatchNorm2d(64, eps=0.0001, momentum=0.1, affine=True, track_running_stats=True)
        (bn1): BatchNorm2d(64, eps=0.0001, momentum=0.1, affine=True, track_running_stats=True)
        (activation): ReLU(inplace=True)
      )
    )
    (1): ModuleList(
      (0): DiscBlock(
        (conv0): Conv2d(64, 128, kernel_size=(3, 3), stride=(1, 1), padding=(1, 1))
        (conv1): Conv2d(128, 128, kernel_size=(4, 4), stride=(2, 2), padding=(1, 1))
        (bn0): BatchNorm2d(128, eps=0.0001, momentum=0.1, affine=True, track_running_stats=True)
        (bn1): BatchNorm2d(128, eps=0.0001, momentum=0.1, affine=True, track_running_stats=True)
        (activation): ReLU(inplace=True)
      )
    )
    (2): ModuleList(
      (0): DiscBlock(
        (conv0): Conv2d(128, 256, kernel_size=(3, 3), stride=(1, 1), padding=(1, 1))
        (conv1): Conv2d(256, 256, kernel_size=(4, 4), stride=(2, 2), padding=(1, 1))
        (bn0): BatchNorm2d(256, eps=0.0001, momentum=0.1, affine=True, track_running_stats=True)
        (bn1): BatchNorm2d(256, eps=0.0001, momentum=0.1, affine=True, track_running_stats=True)
        (activation): ReLU(inplace=True)
      )
    )
  )
  (activation): ReLU(inplace=True)
  (conv1): Conv2d(256, 512, kernel_size=(3, 3), stride=(1, 1), padding=(1, 1))
  (bn1): BatchNorm2d(512, eps=0.0001, momentum=0.1, affine=True, track_running_stats=True)
  (linear1): Linear(in_features=512, out_features=1, bias=True)
)
[INFO] 2022-11-12 06:16:01 > Start training!
[INFO] 2022-11-12 06:16:42 > Step:    100 Progress: 0.1% Elapsed: 0:00:41 Gen_loss: 7.966 Dis_loss: 0.009238 Cls_loss: N/A Topk:  N/A ada_p: N/A 
[INFO] 2022-11-12 06:17:20 > Step:    200 Progress: 0.1% Elapsed: 0:01:19 Gen_loss: 7.277 Dis_loss: 0.00289 Cls_loss: N/A Topk:  N/A ada_p: N/A 
[INFO] 2022-11-12 06:17:57 > Step:    300 Progress: 0.1% Elapsed: 0:01:56 Gen_loss: 6.752 Dis_loss: 0.01472 Cls_loss: N/A Topk:  N/A ada_p: N/A 
…
